rec_model/movielens.pt (torch, 973163 bytes, 22 tensors)

weight f4 [1683, 64]
-0.12156576 -0.027277285 -0.0060902075 -0.051306214 -0.1400034 0.044380307 0.00015786783 0.0011441822
0.0494678 -0.019569382 -0.14240539 0.053131144 -0.18793973 -0.041544106 0.1170151 -0.021250406
0.13199858 0.049968723 0.04598545 -0.020984314 0.13364358 -0.1417106 0.0971711 0.1379063
-0.028898746 0.08971752 -0.054026905 -0.039324198 0.07536263 -0.14868715 0.14985631 -0.0037862125
-0.0071778125 -0.06481016 0.11741481 0.077651024 0.049568724 0.063187465 0.0105578145 -0.045015432
-0.15380964 -0.061756123 0.12600172 -0.055482756 0.109404355 -0.038554687 0.03969506 0.004309587
-0.10186555 -0.07513982 -0.042825762 0.15956865 -0.12655938 0.14384784 -0.012581944 0.104474224
0.015740698 -0.11892871 -0.012877706 0.064737946 0.078847826 0.13539585 -0.011310701 -0.036190663
-0.02871796 -0.044827636 0.066666745 0.11103668 -0.03587387 -0.04476533 0.08082204 0.10150447
-0.005550108 -0.07622954 0.04143612 0.05576187 -0.09818129 0.012236099 -0.05222379 0.010353686
-0.042791296 0.068618424 -0.059201263 -0.13763855 0.14382334 -0.024082199 -0.08737609 0.04661632
-0.022110661 -0.027034935 0.014962484 -0.11332756 0.0072263237 -0.10070112 0.07138658 -0.0593753
0.03169644 -0.025883034 -0.051939458 -0.09932863 0.08184531 0.002591954 -0.017008018 -0.08229612
0.047592323 -0.011411853 -0.026603267 -0.05486801 0.023056867 -0.15692718 0.11455361 0.08100054
0.08398044 -0.11007989 0.040248055 0.04240301 0.051875148 0.05064455 -0.041256532 0.02926986
-0.065988615 -0.011392019 0.12681188 0.016402375 -0.07356515 -0.06522706 0.02477687 0.0020862974
-0.04751707 -0.011287091 -0.0043549887 -0.052202214 -0.080025405 0.020537172 0.03591376 -0.006856577
-0.022237048 0.0658637 0.14282829 -0.060036547 -0.051435027 -0.014530554 0.021834372 0.032664552
0.011288432 0.02320261 0.029039348 0.10073256 -0.088691406 -0.028733337 0.035570577 -0.037086587
0.034500673 0.08811438 0.04506564 0.13804518 0.055519722 -0.087496094 0.03574739 0.074401826
-0.037152994 0.095123515 -0.14327699 -0.10869121 0.004260442 0.06960015 0.074284695 -0.0235012
0.028477145 -0.08528668 -0.013365635 -0.016393812 0.0063968697 -0.16208924 -0.025802342 0.013698457
-0.10192925 0.050654203 0.02610312 -0.15712647 0.007456751 0.083665855 -0.009294173 -0.0017263824
0.09495675 -0.027103215 -0.05886698 -0.04568878 -0.04892822 0.13602522 -0.0657654 0.05883484
-0.04096864 -0.0076730265 -0.07390669 0.040016163 -0.07219184 0.051482517 0.0020308963 0.022871321
-0.1787682 0.031010678 -0.09814272 -0.03967505 -0.07565987 -0.009423949 -0.050682206 0.009443759
-0.101732604 -0.0025707954 0.07590836 -0.1344905 0.09131647 0.035681628 -0.04469105 0.05341633
0.07305111 0.066325255 -0.05962078 0.042807642 -0.067506 -0.09996082 0.0024708228 -0.08326473
0.04952569 0.043809764 -0.015620943 0.10321566 -0.0054617194 0.037247695 0.09189531 -0.04091755
-0.08575851 0.10491098 -0.09850148 -0.033991165 -0.09493575 -0.047868285 -0.054410044 0.001571189
-0.0495111 -0.053390216 0.1438606 0.040984508 -0.08876036 0.08779393 -0.0004629676 0.056640323
0.057933785 -0.1083727 0.04026717 0.12683554 -0.075163454 0.03767453 0.032163154 -0.039273143
00000000: 78f7 f8bd 9d74 dfbc 5d90 c7bb 7726 52bd
00000010: 0d5d 0fbe 20c8 353d 5389 2539 62f8 953a
00000020: bf9e 4a3d f84f a0bc b8d2 11be 0ba0 593d
00000030: 4673 40be 272a 2abd 9da5 ef3d 5515 aebc
00000040: a32a 073e 01ac 4c3d 3d5b 3c3d 4ce7 abbc
00000050: ddd9 083e 951c 11be a401 c73d 4f37 0d3e
00000060: 10bd ecbc d2bd b73d 514b 5dbd 6912 21bd
00000070: b957 9a3d 7241 18be ef73 193e 1b22 78bb
00000080: db33 ebbb 30bb 84bd 2d77 f03d 8007 9f3d
00000090: 9308 4b3d 6e68 813d affa 2c3c 1a62 38bd
000000a0: 4680 1dbe fdf3 7cbd 9806 013e e341 63bd
000000b0: 640f e03d 85eb 1dbd 4a97 223d 7037 8d3b
000000c0: e39e d0bd e8e2 99bd 116a 2fbd f765 233e
000000d0: c898 01be d94c 133e 8024 4ebc 95f6 d53d
000000e0: a3f2 803c e590 f3bd 04fd 52bc 5495 843d
000000f0: f87a a13d 36a5 0a3e 8550 39bc a93c 14bd
00000100: ed41 ebbc 2f9d 37bd 9388 883d 3367 e33d
00000110: 7bf0 12bd da5b 37bd 0786 a53d 93e1 cf3d
00000120: aedd b5bb 3c1e 9cbd ecb8 293d 8f66 643d
00000130: 4613 c9bd eb79 483c 9de8 55bd 82a2 293c
00000140: ed45 2fbd d187 8c3d 067d 72bd 1ff1 0cbe
00000150: 6d46 133e 0848 c5bc 3cf2 b2bd c1f0 3e3d
00000160: 6b21 b5bc 5e78 ddbc 3525 753c 4818 e8bd
00000170: ccca ec3b 643c cebd 2133 923d 8433 73bd
00000180: 20d4 013d a808 d4bc 78be 54bd cf6c cbbd
00000190: 849e a73d c6dd 293b 6654 8bbc de8a a8bd
000001a0: 2bf0 423d c8f8 3abc 18ef d9bc 47bd 60bd
000001b0: c1e1 bc3c 85b1 20be 159b ea3d 9ce3 a53d
000001c0: f0fd ab3d 9171 e1bd 25db 243d c7ae 2d3d
000001d0: 097b 543d a970 4f3d 9cfc 28bd 58c7 ef3c
000001e0: 0a25 87bd 97a5 3abc f9da 013e 465e 863c
000001f0: 53a9 96bd c495 85bd ddf8 ca3c 43ba 083b
00000200: 42a1 42bd 7eed 38bc 4bb4 8ebb fdd1 55bd
00000210: 5ce4 a3bd 923d a83c 4f1a 133d 23ad e0bb
00000220: 782a b6bc 8ce3 863d 9441 123e e2e8 75bd
00000230: 89ad 52bd 9011 6ebc ffdd b23c 44cb 053d
00000240: 1ef3 383c 6613 be3c ede3 ed3c df4c ce3d
00000250: d7a3 b5bd 2d62 ebbc 74b2 113d 1be8 17bd
00000260: 9450 0d3d 5075 b43d c096 383d b75b 0d3e
00000270: a668 633d 2731 b3bd db6b 123d fc5f 983d
00000280: bd2d 18bd 1ed0 c23d 34b7 12be 7f99 debd
00000290: 2e9b 8b3b 868a 8e3d 9322 983d 9785 c0bc
000002a0: e748 e93c c8aa aebd 89fb 5abc 514c 86bc
000002b0: d59c d13b b9fa 25be 6f5f d3bc 7e6f 603c
000002c0: 48c0 d0bd c87a 4f3d 36d6 d53c c3e5 20be
000002d0: c357 f43b 0159 ab3d 9646 18bc c847 e2ba
000002e0: af78 c23d 9007 debc 811e 71bd 2824 3bbd
000002f0: f568 48bd 324a 0b3e 03b0 86bd cdfc 703d
00000300: bcce 27bd 036e fbbb 645c 97bd fde7 233d
00000310: 51d9 93bd 55df 523d c918 053b a35c bb3c
00000320: 030f 37be 1b0a fe3c 0dff c8bd 4e82 22bd
00000330: 90f3 9abd e866 1abc 2598 4fbd ffb9 1a3c
00000340: 2f59 d0bd ca7a 28bb d875 9b3d e1b7 09be
00000350: 2104 bb3d e626 123d f60d 37bd 15cb 5a3d
00000360: d29b 953d 89d5 873d eb34 74bd 1157 2f3d
00000370: 9640 8abd 42b8 ccbd 87ed 213b b386 aabd
00000380: 73db 4a3d de71 333d fcee 7fbc bb62 d33d
00000390: 39f8 b2bb 0a91 183d 9c33 bc3d 2999 27bd
000003a0: 28a2 afbd 91db d63d 25bb c9bd 523a 0bbd
000003b0: ad6d c2bd 8911 44bd 11dd 5ebd 5bf0 cd3a
000003c0: 27cc 4abd b3af 5abd 3150 133e 5fdf 273d
000003d0: fec7 b5bd 4ecd b33d 76ba f2b9 afff 673d
000003e0: fa4b 6d3d 82f2 ddbd 30ef 243d 2de1 013e
000003f0: 4cef 99bd 9c50 1a3d 83bd 033d e0dc 20bd

weight f4 [10, 64]
-0.07803813 0.015806753 0.10350111 -0.007096787 -0.045866653 -0.056504525 -0.011690149 -0.028724516
-0.08536461 0.06105794 0.026727797 0.011462106 0.009932394 -0.0004955741 -0.065811574 -0.070865475
-0.005006685 -0.031555027 0.04219638 -0.052226074 0.005184378 0.045113917 0.009143892 0.00097053393
0.030677887 -0.060050275 0.10593655 -0.04249031 -0.06036038 0.028858243 -0.026188264 -0.0097972
0.00847242 -0.016355574 0.014896422 0.0589263 0.05007457 -0.10860447 0.034743648 0.014010806
-0.004049293 -0.021590846 0.02646629 0.01411181 0.009708697 0.013710193 -0.024249673 0.040913105
0.015872337 0.033485226 -0.01666004 -0.021813149 0.0061910893 -0.0041827 0.053084016 0.01739587
0.039013762 -0.0665626 -0.016058194 -0.010282043 0.004571788 0.001552191 -0.029207459 -0.015654193
0.019769223 0.010081309 -0.022910178 0.0030167396 0.035870317 -0.084701635 -0.036202878 0.0023576093
-0.14557037 -0.052450847 0.02023298 0.03702395 -0.013561234 -0.016398035 -0.043721117 -0.053189125
-0.0108684255 -0.048986617 0.03235837 0.028426304 0.019249279 0.0024366183 0.014610343 -0.012384407
-0.0148674045 0.033596706 -0.0038036264 -0.00084807683 -0.026429914 -0.0019216464 0.014041422 -0.02899
0.014796812 0.007877918 0.0024769444 0.012963951 -0.024582414 0.021064982 -0.017910257 -0.00035228752
-0.030921487 0.009169756 -0.05496067 0.004191995 0.010454013 -0.0041724383 -0.0014590229 0.009908808
0.0045764535 0.057650007 0.043890417 -0.005780813 -0.002889236 -0.0068099303 0.012160189 0.047664616
0.06699986 0.00949159 0.017150434 0.0048713707 0.018418077 0.014300061 -0.027849035 -0.02570226
0.02239725 -0.004490203 -0.021926405 -0.012600543 -0.062193178 -0.02377801 -0.014483951 0.010905567
-0.10409214 0.007238712 0.008682413 -0.039973255 0.0060835695 0.010835622 -0.059075583 -0.03366977
0.009115527 0.04241176 0.037954796 -0.036940146 -0.006311895 0.033505566 0.011432037 -0.029808039
-0.013216953 0.026304033 -0.008233559 0.0056206295 0.0120504955 0.0070845573 -0.044134643 -0.0063460646
-0.0035032001 0.0554808 0.017928736 0.033373646 0.052688953 -0.04437532 -0.022843268 0.032980945
-0.008434272 -0.020479934 0.033150323 -0.009766254 0.0049346536 -0.0040103877 0.043368317 -0.01970458
0.01734761 0.009276109 0.02867608 -0.006733276 0.016489595 -0.029185358 0.013461033 0.026725544
-0.040756367 -0.025271624 0.020437468 -0.0043496033 -0.007276474 -0.0126213245 -0.02810269 0.026888682
-0.0073852385 0.049038064 -0.00195424 0.034705766 -0.009632155 0.0310881 -9.850357e-05 0.01436804
-0.11465814 0.02034638 0.021031363 -0.039171178 -0.013072463 0.0063186027 -0.025075601 -0.011091878
-0.010945872 -0.02768486 -0.024445608 0.020357972 -0.0007036553 -0.0075657577 -0.019576306 0.00042030754
-0.01513752 -0.08918906 -0.020959103 0.01435101 -0.011324029 0.0055293473 -0.06448961 0.0103103295
-0.01804154 0.031007474 0.014148886 -0.0025555082 -0.0070221857 0.0005802641 -0.0058615403 0.024914565
-0.034274854 -0.020378469 0.037066814 -0.0066044317 0.018861037 -0.0121086305 0.0114691015 0.0018083832
-0.0046707112 0.032125477 0.02539644 0.0050292825 -0.007308248 -0.020538472 0.03668129 0.058865327
0.0030425044 0.030351587 0.022476764 0.002002168 -0.0114026405 -0.0140563445 -0.04017147 0.021278238
00000000: 75d2 9fbd 2a7d 813c 64f8 d33d 2a8c e8bb
00000010: acde 3bbd 4a71 67bd 0a88 3fbc ad4f ebbc
00000020: a4d3 aebd e417 7a3d 41f4 da3c 8fcb 3b3c
00000030: 7bbb 223c 6ae9 01ba 38c8 86bd eb21 91bd
00000040: 1e0f a4bb d83f 01bd 1dd6 2c3d 02eb 55bd
00000050: b7e1 a93b 5fc9 383d 43d0 153c 6e6b 7e3a
00000060: 3150 fb3c 47f7 75bd 43f5 d83d 520a 2ebd
00000070: 723c 77bd 1f68 ec3c c588 d6bc 6f84 20bc
00000080: e8cf 0a3c 20fc 85bc 1f10 743c b45c 713d
00000090: fe1a 4d3d 056c debd 5b4f 0e3d 948d 653c
000000a0: efaf 84bb 49df b0bc d5cf d83c 3935 673c
000000b0: 3a11 1f3c b8a0 603c 40a7 c6bc 8094 273d
000000c0: b406 823c ce27 093d a37a 88bc 7db1 b2bc
000000d0: 9fde ca3b 080f 89bb a06e 593d c981 8e3c
000000e0: e5cc 1f3d f951 88bd 798c 83bc 0476 28bc
000000f0: f0ce 953b e372 cb3a 7b44 efbc 393d 80bc
00000100: 11f3 a13c 132c 253c 20ae bbbc 7eb4 453b
00000110: c1ec 123d 0d78 adbd 7849 14bd 1f82 1a3b
00000120: 6610 15be b3d6 56bd a2bf a53c 6da6 173d
00000130: f02f 5ebc 2c55 86bc ea14 33bd d7dc 59bd
00000140: 7b11 32bc 31a6 48bd 368a 043d 48de e83c
00000150: aab0 9d3c acaf 1f3b 3860 6f3c f8e7 4abc
00000160: 6a96 73bc b39c 093d 4346 79bb 7951 5eba
00000170: 8c83 d8bc c1df fbba fe0d 663c 707c edbc
00000180: 546e 723c 6212 013c 3b54 223b c066 543c
00000190: 0f61 c9bc 7890 ac3c 88b8 92bc 3bb3 b8b9
000001a0: 0f4f fdbc bf3c 163c 711e 61bd 015d 893b
000001b0: 4f47 2b3c f3b8 88bb af3c bfba 8e58 223c
000001c0: 13f6 953b 6a22 6c3d 70c6 333d f96c bdbb
000001d0: 5659 3dbb d625 dfbb 883b 473c f93b 433d
000001e0: 3937 893d 9d82 1b3c 117f 8c3c 05a0 9f3b
000001f0: 82e1 963c ce4a 6a3c a923 e4bc 8c8d d2bc
00000200: 707a b73c 8e22 93bb 019f b3bc 8272 4ebc
00000210: 46be 7ebd 1aca c2bc 184e 6dbc 43ad 323c
00000220: 432e d5bd b832 ed3b ae40 0e3c ffba 23bd
00000230: ae58 c73b e587 313c 3df9 71bd 50e9 09bd
00000240: 4b59 153c f4b7 2d3d 7d76 1b3d 8d4e 17bd
00000250: 03d4 cebb 223d 093d 704d 3b3c fd2f f4bc
00000260: eb8b 58bc 8e7b d73c 0de6 06bc 422d b83b
00000270: 716f 453c 9325 e83b 87c6 34bd a6f2 cfbb
00000280: f295 65bb d63f 633d 49df 923c ceb2 083d
00000290: 5fd0 573d e5c2 35bd ce21 bbbc 0717 073d
000002a0: e72f 0abc 89c5 a7bc a2c8 073d a302 20bc
000002b0: e0b2 a13b 9269 83bb faa2 313d 806b a1bc
000002c0: 931c 8e3c d2fa 173c 19ea ea3c d0a2 dcbb
000002d0: 3015 873c 2216 efbc aa8b 5c3c 87ef da3c
000002e0: 26f0 26bd 7006 cfbc 7a6c a73c 1e87 8ebb
000002f0: 7d6f eebb acc9 4ebc 9d37 e6bc a745 dc3c
00000300: dfff f1bb 23dc 483d b512 00bb a227 0e3d
00000310: 30d0 1dbc 79ac fe3c b493 ceb8 ed67 6b3c
00000320: e3d1 eabd 74ad a63c f749 ac3c f571 20bd
00000330: e22d 56bc 480c cf3b 596b cdbc b5ba 35bc
00000340: 5156 33bc 5ccb e2bc 2842 c8bc c3c5 a63c
00000350: 8275 38ba 2dea f7bb 7d5e a0bc b95c dc39
00000360: 5c03 78bc c1a8 b6bd 6db2 abbc 8020 6b3c
00000370: 6c88 39bc 872f b53b 2113 84bd a8ec 283c
00000380: dacb 93bc 6303 fe3c bbd0 673c 507a 27bb
00000390: 5d1a e6bb dd1c 183a 2a12 c0bb a119 cc3c
000003a0: ca63 0cbd bff0 a6bc 5fd3 173d fd69 d8bb
000003b0: 7682 9a3c 4763 46bc e6e8 3b3c 4507 ed3a
000003c0: c40c 99bb 0196 033d 320c d03c aecc a43b
000003d0: 077a efbb 4c40 a8bc 1f3f 163d c51c 713d
000003e0: c164 473b e4a3 f83c 3121 b83c ce36 033b
000003f0: 24d2 3abc 954c 66bc d78a 24bd b34f ae3c

weight f4 [64]
0.118093766 0.13150275 0.13863264 0.11097879 0.18250105 0.15307921 0.16318567 0.13876638
0.12983325 0.14281645 -0.051679824 0.1749846 0.06586257 0.13513465 0.22309613 0.12892097
-0.0657556 0.19213189 0.15684584 0.14777571 0.11040039 0.15060338 -0.030350834 0.17117175
0.14008899 0.123684645 0.14236449 0.14711212 0.22537184 0.11922276 0.11856078 0.12804057
0.14937791 0.12846744 0.21801704 0.091611765 0.10778231 0.112758465 0.13005991 0.12640691
0.1660285 0.09971463 0.22211735 0.1523596 0.11048174 0.05641636 0.13524581 0.17681828
-0.0023091354 0.15014443 0.19247638 -0.016547956 0.11463948 0.13904092 0.16603263 0.14023083
0.21776287 0.196979 0.0033844693 0.13107497 0.10143875 0.16980752 0.15080139 0.22464943
00000000: 25db f13d a8a8 063e b7f5 0d3e d948 e33d
00000010: 8ee1 3a3e ccc0 1c3e 251a 273e c618 0e3e
00000020: 02f3 043e 7a3e 123e 39ae 53bd 2a2f 333e
00000030: f5e2 863d bd60 0a3e 5073 643e dc03 043e
00000040: dfaa 86bd 39be 443e 329c 203e 8452 173e
00000050: 9a19 e23d c637 1a3e 50a2 f8bc a647 2f3e
00000060: 7d73 0f3e 604e fd3d ffc7 113e 8fa4 163e
00000070: e0c7 663e 102b f43d ffcf f23d 111d 033e
00000080: 86f6 183e f88c 033e dc3f 5f3e f39e bb3d
00000090: f9bc dc3d e9ed e63d 6d2e 053e d070 013e
000000a0: 6003 2a3e 2f37 cc3d bb72 633e 2804 1c3e
000000b0: 4044 e23d d714 673d e17d 0a3e da0f 353e
000000c0: dd54 17bb 76bf 193e 8718 453e 948f 87bc
000000d0: 1bc8 ea3d be60 0e3e 7504 2a3e ac98 0f3e
000000e0: 3bfd 5e3e ddb4 493e f9cd 5d3b 8438 063e
000000f0: 1fbf cf3d 06e2 2d3e ae6b 1a3e 800a 663e

bias f4 [64]
-0.020179622 -0.021033594 0.0070915697 0.013206463 0.021156022 0.00967988 0.24909759 0.008581655
-0.26946962 0.008975943 -0.022372149 0.0009399207 -0.27779645 0.19946778 0.017759277 0.012442888
-0.020387426 0.03565281 0.0053053186 -0.007247268 0.065612674 0.00032905999 -0.045974355 0.26718485
0.008968417 -0.0046436996 0.0033603974 0.020057218 0.015912322 -0.38631037 0.04328846 -0.0033139747
0.011402928 -0.010835287 0.0027692372 -0.033813633 -0.025667509 0.0023182682 0.25159863 -0.007171325
0.01317525 0.005786734 0.022100862 0.23261353 -0.026956607 -0.2961896 0.028621087 -0.026455572
0.04533431 -0.0025309995 0.02302526 0.012324439 -0.3196185 0.21470222 0.006486797 0.0062598344
0.02250478 0.00038864298 -0.29181343 0.2530811 0.005506033 0.19093594 0.006229657 0.011351602
00000000: bc4f a5bc a54e acbc 6660 e83b ec5f 583c
00000010: 654f ad3c 5c98 1e3c 7013 7f3e 129a 0c3c
00000020: ecf7 89be d50f 133c cc45 b7bc 0365 763a
00000030: 563b 8ebe 4841 4c3e e77b 913c 41dd 4b3c
00000040: 8803 a7bc ae08 123d 3dd8 ad3b 7e7a edbb
00000050: f05f 863d af85 ac39 9b4f 3cbd 74cc 883e
00000060: 44f0 123c 2d2a 98bb 1d3a 5c3b 094f a43c
00000070: 8f5a 823c 79ca c5be 3d4f 313d 452f 59bb
00000080: 59d3 3a3c 7d86 31bc 177c 353b 2a80 0abd
00000090: ab44 d2bc 16ee 173b 89d1 803e 6ffd eabb
000000a0: 01dd 573c a59e bd3b de0c b53c 3e32 6e3e
000000b0: 1ad4 dcbc 2aa6 97be c576 ea3c 5bb9 d8bc
000000c0: 78b0 393d 20df 25bb 789f bc3c 72ec 493c
000000d0: 09a5 a3be e6da 5b3e 328f d43b 4c1f cd3b
000000e0: f25b b83c c7c2 cb39 9268 95be d993 813e
000000f0: f46b b43b b684 433e 2722 cc3b 12fc 393c

weight f4 [64]
0.5100678 0.50073004 0.5020127 0.6144442 0.38874447 0.45352235 0.017203614 0.5199219
0.056743115 0.45183426 0.0032216217 0.40795824 0.10987447 -0.006958992 0.345704 0.5097547
0.008077403 0.35001153 0.4210301 0.508066 0.00019829601 0.43303722 -5.2675798e-05 0.009682822
0.4210239 0.5709872 0.46516916 0.45918977 0.34374547 0.09643044 0.5130535 0.53252983
0.49523076 0.49724108 0.34241965 0.5673826 0.5785224 0.54476124 0.012019249 0.5753404
0.40568593 0.6473099 0.357511 0.005088426 0.011786044 0.008673976 0.48689795 0.3835927
0.6371717 0.4684275 0.39707795 -0.004429345 -0.0026078494 0.00312274 0.42399946 0.48558822
0.33695298 0.37526786 0.004839089 -0.011730247 0.0010488607 -0.0009784576 0.45074672 0.34407505
00000000: ce93 023f d82f 003f e883 003f 374c 1d3f
00000010: 8409 c73e 1534 e83e 98ee 8c3c 9a19 053f
00000020: 786b 683d d256 e73e d821 533b e7df d03e
00000030: de05 e13d 4208 e4bb 1d00 b13e 497f 023f
00000040: 1557 043c b634 b33e 4291 d73e 9d10 023f
00000050: aeed 4f39 0eb7 dd3e 35f0 5cb8 b3a4 1e3c
00000060: 7290 d73e 382c 123f a72a ee3e ec1a eb3e
00000070: 68ff af3e 537d c53d 7957 033f e053 083f
00000080: e38e fd3e 6296 fe3e a151 af3e fc3f 113f
00000090: 0b1a 143f 7975 0b3f 62ec 443c 8249 133f
000000a0: 11b6 cf3e 1ab6 253f af0b b73e d0bc a63b
000000b0: 401a 413c 4b1d 0e3c b04a f93e 4366 c43e
000000c0: af1d 233f bbd5 ef3e cd4d cb3e 0a24 91bb
000000d0: 74e8 2abb e2a6 4c3b 7516 d93e 059f f83e
000000e0: 1a85 ac3e 1c23 c03e 3891 9e3b 3930 40bc
000000f0: ed79 893a 973f 80ba 46c8 e63e 9b2a b03e

bias f4 [64]
0.08571695 -0.011348753 0.037323695 -0.022094378 0.011992655 0.027058698 0.01017726 0.00082520157
0.054652452 0.0552552 -0.006039106 0.01204096 0.05230466 -0.0029508502 -0.02700121 -0.049636777
-0.0026068434 -0.059249595 0.09238082 0.062955126 -0.0050229253 0.036592234 -0.0050324393 -0.018267607
-0.042277645 0.033471204 0.07481315 0.025453122 0.064225614 0.084545344 -0.073429875 -0.12010655
0.002939108 0.06339945 0.0056695947 0.07834805 0.065191455 0.03768662 -0.01707052 0.049138542
0.033072162 -0.020583838 0.013456902 -0.0068007833 -0.0026871066 -0.0017630499 0.005587247 0.043397654
0.16097029 0.033078156 0.011113991 -0.0050835987 -0.006713649 -0.0026237615 0.052368056 0.006324979
-0.012432442 0.063463286 -0.004104081 0.014986373 -0.0012696845 0.0006352488 0.033084556 0.056434367
00000000: 5e8c af3d 1ff0 39bc bbe0 183d 45ff b4bc
00000010: d77c 443c 34aa dd3c 86be 263c 5752 583a
00000020: 40db 5f3d 4753 623d b1e3 c5bb 7247 453c
00000030: 693d 563d 0d63 41bb a431 ddbc ef4f 4bbd
00000040: 93d7 2abb b4af 72bd 2832 bd3d 9eee 803d
00000050: 5a97 a4bb bde1 153d 29e7 a4bb f3a5 95bc
00000060: 532b 2dbd 1a19 093d a337 993d 1183 d03c
00000070: b888 833d 1c26 ad3d 6762 96bd 6cfa f5bd
00000080: 0d9e 403b 92d7 813d 02c8 b93b f174 a03d
00000090: 1983 853d 495d 1a3d 7ad7 8bbc 7f45 493d
000000a0: ad76 073d 709f a8bc 567a 5c3c 1bd9 debb
000000b0: 2b1a 30bb 2316 e7ba 3a15 b73b bdc1 313d
000000c0: 65d5 243e f67c 073d 7517 363c 5194 a6bb
000000d0: 2bfe dbbb 6af3 2bbb e37f 563d c541 cf3b
000000e0: 71b1 4bbc 0af9 813d 877b 86bb 6789 753c
000000f0: 8b6b a6ba d386 263a ac83 073d b927 673d

weight f4 [64]
3.270868 2.631185 2.679488 3.094037 2.445443 2.5682578 0.006041883 2.7593348
-0.005582205 2.5831084 -0.006258359 2.4992783 -0.007846433 -0.0022284102 2.4505928 2.6812592
0.0070836097 2.467136 2.6045651 2.6400433 0.0057915887 2.551882 -0.004735817 -0.0017607373
2.6647894 2.7761767 2.611774 2.614061 2.4427547 -0.0003527025 3.0077288 5.2626243
2.5909665 2.667357 2.4917612 3.1323998 3.4169226 2.6226459 0.0022539257 2.8808737
2.5273979 3.580034 2.4482698 0.0068058195 -0.0022400394 -0.0049840305 2.5552454 2.5294104
-0.00060017506 2.6775477 2.4197283 -0.0013158028 -0.0071193976 0.0022546179 2.5356605 2.7320418
2.5051115 2.4885118 0.0023754425 -0.00064352114 -0.004790116 0.0046911933 2.557952 2.4408772
00000000: e755 5140 5665 2840 bb7c 2b40 b404 4640
00000010: 2382 1c40 565e 2440 fdfa c53b f198 3040
00000020: eeea b6bb a651 2540 ec12 cdbb 2df4 1f40
00000030: 538e 00bc 850a 12bb 83d6 1c40 c099 2b40
00000040: a01d e83b 8ee5 1d40 32b1 2640 78f6 2840
00000050: 5ec7 bd3b 0952 2340 ea2e 9bbb 8ac8 e6ba
00000060: e98b 2a40 e1ac 3140 4e27 2740 c74c 2740
00000070: 1856 1c40 eeea b8b9 a17e 4040 6b67 a840
00000080: 65d2 2540 fab5 2a40 0479 1f40 3d79 4840
00000090: dcae 5a40 6ed9 2740 99b6 133b 3c60 3840
000000a0: e3c0 2140 471f 6540 74b0 1c40 5a03 df3b
000000b0: a0cd 12bb 1451 a3bb 2489 2340 dce1 2140
000000c0: 1155 1dba f15c 2b40 d4dc 1a40 0477 acba
000000d0: d649 e9bb 36c2 133b 4348 2240 c6d9 2e40
000000e0: bf53 2040 c743 1f40 50ad 1b3b f9b1 28ba
000000f0: 68f6 9cbb 95b8 993b 7cb5 2340 5537 1c40

bias f4 [64]
1.7983088 0.50863224 0.15987712 -0.57312125 -0.087913424 -0.18085714 0.008558594 -0.9110548
-0.009827035 -0.809741 -0.011098112 -0.1858996 -0.00984461 -0.003128382 -0.08995223 -0.7557877
0.009081909 -0.59056354 0.18579698 -0.8099791 0.009800358 0.6998017 -0.007206656 -0.0037554628
0.017204735 -0.2402171 -0.35100013 0.46958527 -0.81366235 -0.0010077225 -1.9332569 -1.5362597
-0.79193413 0.5538232 1.2135634 1.5891851 2.5179234 -0.61405164 0.0027730102 0.4400885
-0.035230733 -1.0916889 -0.85799485 0.018570121 -0.0057256008 -0.0062203608 -0.3595508 -0.051170044
0.0006783677 0.6480433 -0.7382034 -0.0038729704 -0.0071980082 0.0032491027 -0.60764223 0.3819007
-0.27141264 -0.63329816 0.0066127786 -0.0008694052 -0.00944412 0.008722863 0.03074287 -0.73285675
00000000: fc2e e63f b935 023f d4b6 233e 13b8 12bf
00000010: f40b b4bd 9d32 39be 5839 0c3c e33a 69bf
00000020: 9201 21bc 304b 4fbf dbd4 35bc 775c 3ebe
00000030: 494b 21bc 8a05 4dbb e038 b8bd 4d7b 41bf
00000040: 4acc 143c 2c2f 17bf 9041 3e3e ca5a 4fbf
00000050: ae91 203c 3426 333f d025 ecbb 361e 76bb
00000060: f2f0 8c3c 79fb 75be 4ab6 b3be 7b6d f03e
00000070: 2d4c 50bf 8e15 84ba f674 f7bf 28a4 c4bf
00000080: 32bc 4abf 5bc7 0d3f 0c56 9b3f 6b6a cb3f
00000090: a825 2140 7d32 1dbf 64bb 353b 4853 e13e
000000a0: 1a4e 10bd 76bc 8bbf 8da5 5bbf 5e20 983c
000000b0: d29d bbbb 2bd4 cbbb 0b17 b8be ae97 51bd
000000c0: 7cd4 313a 2ae6 253f e6fa 3cbf a9d1 7dbb
000000d0: 45dd ebbb e6ee 543b 718e 1bbf 7d88 c33e
000000e0: 99f6 8abe d41f 22bf 02b0 d83b cce8 63ba
000000f0: 83bb 1abc 57ea 0e3c 79d8 fb3c 809c 3bbf

weight f4 [64, 64]
4.369194e-05 -0.00024808297 0.00010917098 -1.6187407e-05 -0.00022079084 -6.217922e-05 -0.0002124316 -1.7915858e-05
0.00032968985 -7.730881e-05 2.6232168e-05 0.0001702516 0.0003369677 -0.00042730774 6.146397e-05 -2.3912315e-05
0.0002536898 0.0003242543 0.00016037677 0.00019454455 -0.00013852616 -0.00018553149 -4.224127e-05 -0.00018025657
4.2963904e-05 -0.00016279831 -7.3075425e-05 0.00024645726 8.255367e-05 0.00030036832 7.9333346e-05 0.00013116948
0.00020003234 5.5284534e-05 0.00038401206 -7.01691e-05 -0.00024614183 5.2919946e-05 -0.00035678307 -0.00021473801
1.669944e-05 9.990872e-05 4.0779825e-05 -0.00038611496 -9.386072e-05 0.00030305318 0.00017342033 7.2738134e-05
0.000282591 -0.00010721397 -8.084826e-05 3.8352462e-07 0.00023151546 -0.00020845028 -0.00014031262 -0.00023580909
7.60258e-05 -3.0987478e-05 0.0002425124 -0.0002668341 -0.00026684377 -0.00034795972 0.00012277579 9.353216e-05
1.3580569e-07 -1.1200756e-07 4.4902515e-07 2.5818133e-07 -3.7781584e-07 1.5464178e-07 5.4137996e-07 -3.7185052e-07
-4.5513983e-07 -3.5794343e-07 1.2363581e-07 1.0534949e-07 -6.7072875e-08 2.4383056e-07 3.8879344e-07 -9.888047e-08
1.0786799e-07 5.496615e-07 4.2620297e-07 1.09918645e-07 3.9350677e-08 1.930346e-07 -2.9468902e-08 4.753476e-07
-8.6523016e-08 -3.4208244e-07 1.1651238e-07 -3.0096663e-07 4.281353e-07 -2.0853345e-07 3.102069e-09 -4.5505434e-08
-1.1371133e-07 2.8011914e-07 3.0287555e-07 -3.0035313e-08 -1.1791416e-07 -7.362192e-08 1.3645449e-07 -6.1448986e-07
4.8210796e-07 -3.7932554e-07 -3.0189244e-07 -1.4362225e-08 -3.1703524e-07 -1.5854337e-07 2.807373e-07 -8.6520565e-08
2.1194862e-07 -1.2728013e-07 -1.01619506e-07 -2.4270386e-07 -4.4398018e-07 5.0387683e-07 -1.6699691e-07 3.1290618e-08
-3.221829e-07 1.2807967e-08 -2.3054677e-07 3.2143458e-07 -3.080328e-07 -2.6761026e-07 -2.2093741e-07 7.1248996e-07
7.534473e-10 8.886358e-09 -1.2132113e-09 8.785324e-09 -7.851809e-10 -8.903158e-10 -2.3953874e-08 -2.324705e-09
2.271787e-08 -8.2382556e-10 -1.1763612e-08 -1.2369335e-08 1.8846555e-08 -1.31983064e-08 -1.7198447e-10 -5.872212e-09
-8.504358e-09 -4.8525406e-09 -3.6238628e-09 -2.4789915e-09 -7.802958e-09 7.487678e-09 2.7999398e-09 -2.183649e-08
-8.621685e-09 6.379071e-09 -3.111414e-09 -6.8008816e-09 6.421015e-09 2.9827923e-08 -9.981479e-09 5.7089777e-09
-1.6179877e-08 -4.588667e-09 -2.2276556e-09 -1.1447319e-09 9.1257615e-09 -2.4100135e-09 -2.3112777e-08 4.4555954e-09
1.4395779e-09 -1.4302635e-10 9.506567e-10 -1.8320442e-08 -1.1216835e-08 1.5307789e-08 2.6932356e-09 6.0325593e-09
-9.651795e-09 3.5711918e-09 -1.9179824e-09 -6.2448504e-09 1.8873234e-08 -1.7446764e-08 6.54429e-09 4.9328897e-09
-1.7688219e-08 -2.9821754e-09 1.1976381e-08 -2.5180011e-08 -8.05041e-09 -1.9112756e-08 -1.2754855e-08 5.5999463e-09
2.417313e-07 -3.5083616e-07 1.3309823e-07 -8.959076e-08 -2.1937271e-07 4.5435655e-08 1.0665651e-07 -5.6335274e-08
-1.853296e-07 2.1027259e-07 1.2039045e-07 2.46229e-07 -1.828054e-07 2.3404705e-07 -1.9664999e-08 -2.9316395e-08
-2.9522175e-08 2.933389e-07 -1.9385568e-07 2.4982498e-07 3.7435618e-07 -2.1846658e-07 1.9032358e-07 4.2958175e-07
-9.007398e-08 5.641357e-08 -1.0931848e-07 1.2080918e-07 -2.4458714e-07 -5.623823e-07 1.120095e-09 -1.01423495e-07
2.1900011e-07 3.8272795e-08 2.5604186e-07 2.0864981e-07 -2.0962752e-07 -3.00948e-10 1.877179e-07 -4.2824254e-08
5.98173e-08 1.6312455e-07 -7.449188e-08 5.03417e-07 2.5046205e-07 -2.895005e-07 2.0497363e-07 -2.4554566e-08
6.546272e-08 -5.5198576e-08 -7.538317e-08 3.8170214e-08 -4.7505452e-07 3.5033082e-07 -1.4034886e-07 -1.1921082e-07
1.6278946e-07 8.1057344e-08 -1.404628e-07 4.7448725e-07 -1.616998e-07 4.101067e-07 3.3954166e-07 2.755568e-07
00000000: dd41 3738 2211 82b9 b9f2 e438 31ca 87b7
00000010: 1784 67b9 3766 82b8 2cc0 5eb9 034a 96b7
00000020: 39da ac39 da20 a2b8 270d dc37 9185 3239
00000030: 0aab b039 4608 e0b9 38e6 8038 4e97 c8b7
00000040: ab01 8539 ad00 aa39 d02a 2839 a8fe 4b39
00000050: 5541 11b9 3b8b 42b9 382c 31b8 4103 3db9
00000060: 2434 3438 d7b4 2ab9 1240 99b8 ef36 8139
00000070: aa20 ad38 c17a 9d39 c45f a638 8a8a 0939
00000080: c6bf 5139 51e1 6738 3a55 c939 c027 93b8
00000090: 990c 81b9 5cf6 5d38 9d0e bbb9 4c2b 61b9
000000a0: c615 8c37 1686 d138 010b 2b38 796f cab9
000000b0: 17d7 c4b8 1ce3 9e39 2ad8 3539 fd8a 9838
000000c0: b928 9439 10d8 e0b8 148d a9b8 39e7 cd34
000000d0: f5c2 7239 7293 5ab9 e220 13b9 8543 77b9
000000e0: 0a70 9f38 8df8 01b8 ed4a 7e39 dee5 8bb9
000000f0: 2ae7 8bb9 5d6e b6b9 60bd 0039 b226 c438
00000100: fcd1 1134 cf88 f0b3 8c11 f134 2c9c 8a34
00000110: 9dd6 cab4 9c0b 2634 5953 1135 bfa2 c7b4
00000120: f159 f4b4 5f2b c0b4 c1c0 0434 7f3c e233
00000130: b409 90b3 d1e7 8234 5dbb d034 1d58 d4b3
00000140: 0ea5 e733 738c 1335 e4d0 e434 6a0c ec33
00000150: 8702 2933 f244 4f34 cd22 fdb2 4733 ff34
00000160: 88ce b9b3 74a7 b7b4 5c35 fa33 8a94 a1b4
00000170: 78da e534 3de9 5fb4 2d2c 5531 c171 43b3
00000180: 7731 f4b3 4863 9634 e69a a234 2d00 01b3
00000190: ff37 fdb3 141a 9eb3 5384 1234 6cf3 24b5
000001a0: 356a 0135 1ba6 cbb4 c813 a2b4 bcbd 76b2
000001b0: fe34 aab4 123c 2ab4 3eb8 9634 2fcd b9b3
000001c0: fe93 6334 7faa 08b4 ea39 dab3 f74c 82b4
000001d0: 2c5c eeb4 2742 0735 c34f 33b4 6664 0633
000001e0: 7bf8 acb4 090a 5c32 378c 77b4 a291 ac34
000001f0: b55f a5b4 13ac 8fb4 d03a 6db4 f041 3f35
00000200: 241b 4f30 9eaa 1832 14be a6b0 43ee 1632
00000210: 32d4 57b0 68ba 74b0 20c3 cdb2 a5c0 1fb1
00000220: 2025 c332 9273 62b0 ea18 4ab2 e980 54b2
00000230: 03e4 a132 c4be 62b2 5319 3daf 86c4 c9b1
00000240: 901a 12b2 66bb a6b1 ab07 79b1 e15a 2ab1
00000250: c60d 06b2 28a3 0032 1069 4031 f392 bbb2
00000260: 921e 14b2 e72e db31 93d0 55b1 30ad e9b1
00000270: d89f dc31 261c 0033 027b 2bb2 b328 c431
00000280: edfb 8ab2 57aa 9db1 5515 19b1 ac54 9db0
00000290: 86c7 1c32 689d 25b1 8989 c6b2 d517 9931
000002a0: a5da c530 5742 1daf 42a8 8230 145f 9db2
000002b0: 29b4 40b2 2f7e 8332 e713 3931 f446 cf31
000002c0: 0bd1 25b2 1269 7531 81cd 03b1 4992 d6b1
000002d0: ae1e a232 d7dd 95b2 2fdc e031 287e a931
000002e0: cef0 97b2 fcee 4cb1 aec0 4d32 6e4b d8b2
000002f0: 144e 0ab2 652d a4b2 7220 5bb2 a669 c031
00000300: 4cc7 8134 8e5a bcb4 c3e9 0e34 0b65 c0b3
00000310: b68c 6bb4 0825 4333 090b e533 4af5 71b3
00000320: 03ff 46b4 4ac7 6134 ad44 0134 7531 8434
00000330: 2a49 44b4 5d4e 7b34 caeb a8b2 6fd3 fbb2
00000340: f397 fdb2 317c 9d34 a526 50b4 af1f 8634
00000350: 1ffb c834 a393 6ab4 bf5b 4c34 44a1 e634
00000360: b26e c1b3 604b 7233 78c2 eab3 c6b7 0134
00000370: cd4f 83b4 9ef6 16b5 d7f1 9930 28ce d9b3
00000380: 4b26 6b34 6261 2433 2076 8934 3909 6034
00000390: f915 61b4 aa72 a5af 818f 4934 c4ed 37b3
000003a0: e974 8033 5627 2f34 58f8 9fb3 8e22 0735
000003b0: 3e77 8634 a56c 9bb4 b916 5c34 10ec d2b2
000003c0: 8394 8c33 7a13 6db3 56e2 a1b3 98f0 2333
000003d0: ff0a ffb4 1a15 bc34 cdb2 16b4 6c00 00b4
000003e0: 3acb 2e34 bf11 ae33 1fd2 16b4 08bd fe34
000003f0: b49f 2db4 a32c dc34 404a b634 3df0 9334

bias f4 [64]
-0.0002731764 -1.3503248e-07 -3.1879036e-08 8.2896116e-07 0.5077616 1.036513e-09 0.28286615 0.3377085
8.00642e-09 -0.42878354 0.14992684 -0.38751364 1.5764438e-07 0.26577765 -4.8605253e-10 -6.375161e-05
-1.4942324e-05 0.0008968042 -5.643082e-09 7.0865824e-10 -7.169692e-13 -3.7913975e-10 0.0007012002 5.707881e-06
0.37915805 0.48669797 -0.33322793 2.0105617e-07 -0.00014928731 0.40909207 -0.000107436696 -0.23605534
-8.7694076e-05 -3.4986045e-09 -0.00012972504 -3.895125e-07 -0.00073322223 0.36721393 -1.1458989e-07 1.1814939e-06
-8.4155577e-16 -0.0018645292 -0.28260523 -7.161021e-09 0.00024497183 -3.5659687e-06 -0.0019435072 -3.9537142e-09
9.718741e-05 -4.1657448e-05 1.5420794e-05 -1.2517423e-06 0.00015143635 0.00012998651 -0.0006729495 0.00096345897
0.35640523 -7.2073493e-12 -3.1257718e-05 2.378428e-06 0.43787974 -8.710242e-07 -0.0004518732 2.8591917e-06
00000000: 1e39 8fb9 72fd 10b4 5feb 08b3 c785 5e35
00000010: aafc 013f 0f75 8e30 d5d3 903e 21e8 ac3e
00000020: 9c8c 0932 8489 dbbe 6c86 193e 3068 c6be
00000030: f544 2934 0214 883e e89a 05b0 63b2 85b8
00000040: cbb0 7ab7 8317 6b3a 13e5 c1b1 64cb 4230
00000050: 13cf 49ab 2d6f d0af c0d0 373a 5386 bf36
00000060: 0121 c23e 7a30 f93e da9c aabe e6e1 5734
00000070: 028a 1cb9 8474 d13e a34f e1b8 7eb8 71be
00000080: 66e8 b7b8 1a6c 70b1 cd06 08b9 311e d1b4
00000090: b635 40ba 7703 bc3e 7514 f6b3 d293 9e35
000000a0: db8f 72a6 3863 f4ba a2b1 90be 020d f6b1
000000b0: 906f 8039 e04e 6fb6 48bd feba 3dd9 87b1
000000c0: 18d1 cb38 58b9 2eb8 e75b 8137 8a01 a8b5
000000d0: e3ca 1e39 fd4c 0839 e068 30ba a390 7c3a
000000e0: bf7a b63e 0896 fdac b81a 03b8 159d 1f36
000000f0: c631 e03e 54d0 69b5 65e9 ecb9 8ae0 3f36

weight f4 [64, 64]
-0.00017418397 -0.00016883231 0.00056701084 -0.0006648446 1.7669227e-05 -0.00018385761 0.00030601636 0.00017697558
-3.1655025e-05 -0.00012929086 -0.0001881359 -2.9160232e-05 8.6141685e-05 0.00010962861 0.0006429007 -0.00049186894
-7.566271e-05 0.00091328734 -0.00014714076 0.00026610066 6.114705e-05 0.00049186376 -0.00020953522 -0.00068814144
0.00029238174 -0.00012229622 0.00026030885 1.4806401e-05 -0.0001288609 -0.0003876286 -0.00049488735 -5.1275833e-06
-0.0006627239 0.00033729407 -0.000475606 0.0006465163 6.8970417e-06 -0.00015712251 6.560657e-05 -1.3940289e-05
-0.00019042437 0.0004905706 0.00057176844 0.0005856508 3.0843632e-05 -0.00035025965 -0.00012936002 0.0001709121
-0.0004055516 0.00012950366 -0.000546376 -0.00049293257 -0.00022763465 -2.2465221e-05 -0.00025865773 -8.323341e-05
-0.00046051334 -0.00038230597 -6.403459e-05 6.8548456e-05 -0.000142408 -4.8758434e-06 -0.00060940074 0.0001413379
4.683262e-07 1.736273e-07 1.0629386e-06 -7.1368555e-07 -1.100141e-06 -4.3905544e-07 6.364218e-07 -6.482517e-07
-1.9982188e-07 1.2172197e-06 6.9262694e-07 8.0675306e-07 2.3347339e-07 -1.4404453e-07 -7.142889e-07 -8.477518e-08
1.0014016e-06 1.2942734e-06 2.853623e-07 6.604497e-07 -3.2404563e-07 -5.1163704e-07 5.3316745e-07 6.6871775e-07
1.2865175e-07 -6.101275e-07 1.735533e-07 -4.0398064e-08 -1.5187072e-07 5.6568325e-07 -7.194121e-07 2.6909294e-07
9.03833e-08 -1.0868961e-06 3.025221e-07 8.1505815e-09 -2.0432255e-07 -4.9826764e-07 2.5463012e-07 -4.0440875e-07
1.1738051e-07 -2.9158e-08 1.1327122e-06 -3.7993334e-07 2.666497e-07 8.922297e-07 -7.094273e-07 8.962522e-08
5.607776e-07 -1.3861134e-08 -5.1084123e-07 2.2977015e-07 5.439126e-07 -5.064144e-07 -9.002881e-07 -3.0023105e-07
-2.798087e-07 -2.9806614e-07 -1.4246399e-07 5.7874735e-07 4.6267894e-07 1.1710167e-07 4.6423347e-07 -2.713427e-07
-9.783683e-09 1.8232534e-08 -7.2502455e-11 -2.8151705e-09 -3.4282742e-08 -6.0172574e-09 1.0071011e-08 -1.1423191e-08
-3.4344488e-08 6.140461e-08 -9.03146e-09 4.7490627e-08 -2.8549378e-08 6.9657915e-09 -3.4320625e-08 -2.7670746e-10
2.3879952e-08 3.1769332e-08 5.051178e-09 3.5184605e-08 1.7855431e-08 -5.3203855e-09 2.2555249e-09 4.781393e-08
7.82581e-09 -1.8793585e-08 1.1183153e-08 -7.086476e-09 -3.223209e-08 -8.021542e-09 1.8582366e-08 6.148575e-09
-6.9732393e-09 -6.5054486e-08 -1.3369691e-08 1.664558e-08 -2.249222e-08 1.8319187e-09 2.3457703e-08 -4.6393267e-09
-2.1252445e-08 4.32255e-09 4.7304024e-08 -9.616412e-09 5.455189e-08 -1.9255125e-08 -6.346003e-09 -1.2148621e-08
1.5347641e-08 2.1521732e-08 -4.4262145e-09 1.1702635e-10 -2.125669e-08 -1.8565455e-09 -2.6086257e-08 2.3388909e-08
3.5489695e-10 -4.8648796e-09 -3.0573737e-08 3.732337e-09 2.8445786e-08 1.3079032e-08 -1.8633202e-09 1.4044291e-08
1.9838913e-07 -5.0807625e-08 1.7839571e-07 -1.3378423e-07 8.219233e-07 7.406408e-07 -3.1340298e-07 7.105713e-07
1.7052214e-06 -1.5313309e-06 -1.0505622e-07 -1.219313e-06 5.628299e-07 -4.9367304e-07 1.1962039e-06 -4.7355985e-07
-5.193368e-07 -4.079762e-07 8.8984855e-08 -2.7452174e-07 -6.6540525e-07 6.3702814e-08 2.1731647e-07 -1.2407548e-06
-3.0097692e-07 4.3013534e-07 -3.898584e-07 2.2508802e-07 9.293702e-07 6.6868346e-08 -5.712777e-07 -1.2919311e-07
-6.937081e-07 1.2402515e-06 1.2245845e-07 -9.602767e-07 4.5837595e-07 2.301581e-07 -4.930771e-07 -1.4559461e-07
1.36238185e-08 -2.4778391e-08 -6.968366e-07 1.161471e-07 -5.570458e-07 2.2640612e-07 3.499616e-07 7.160712e-07
-3.518353e-07 -6.395424e-07 1.318432e-07 -2.0594192e-07 1.5869085e-07 -8.455065e-07 2.1366512e-07 3.7607967e-07
-6.4519605e-07 -4.9002605e-08 1.8162515e-07 -5.024412e-07 -9.770627e-07 -1.4048798e-07 -4.3686875e-08 -5.3038934e-07
00000000: 27a5 36b9 9408 31b9 74a3 143a f748 2eba
00000010: 6038 9437 e7c9 40b9 d270 a039 8592 3939
00000020: 53c5 04b8 4092 07b9 5946 45b9 1f9d f4b7
00000030: f7a6 b438 69e8 e538 5688 283a c4f0 00ba
00000040: 1cad 9eb8 ad69 6f3a cc49 1ab9 6d83 8b39
00000050: 133c 8038 6bf0 003a afb6 5bb9 6464 34ba
00000060: d04a 9939 a43c 00b9 107a 8839 0269 7837
00000070: d61e 07b9 a13a cbb9 54bb 01ba 9b0d acb6
00000080: a6ba 2dba d8d6 b039 c25a f9b9 f97a 293a
00000090: 236d e736 41c1 24b9 4296 8938 16e1 69b7
000000a0: a7ac 47b9 a399 003a bbe2 153a 5c86 193a
000000b0: 195e 0138 0ea3 b7b9 d1a4 07b9 de36 3339
000000c0: 37a0 d4b9 60cb 0739 ac3a 0fba 2538 01ba
000000d0: 36b1 6eb9 b273 bcb7 749c 87b9 998d aeb8
000000e0: 0e71 f1b9 3d70 c8b9 4f4a 86b8 acc1 8f38
000000f0: 5b53 15b9 2d9b a3b6 31c0 1fba 1b34 1439
00000100: 436e fb34 4f6e 3a34 4baa 8e35 1994 3fb5
00000110: 8fa8 93b5 52b7 ebb4 93d6 2a35 8503 2eb5
00000120: 9f8e 56b4 5a5f a335 f6ec 3935 a68f 5835
00000130: adb0 7a34 a9aa 1ab4 8fbd 3fb5 a60d b6b3
00000140: e667 8635 e5b6 ad35 e533 9934 c249 3135
00000150: 7ef8 adb4 6e57 09b5 fd1e 0f35 ef81 3335
00000160: 8623 0a34 a4c7 23b5 f859 3a34 2482 2db3
00000170: e811 23b4 75d9 1735 a01d 41b5 da77 9034
00000180: bf18 c233 77e1 91b5 526a a234 a306 0c32
00000190: c163 5bb4 b1c0 05b5 19b4 8834 841d d9b4
000001a0: 9e12 fc33 1f77 fab2 b207 9835 a4f9 cbb4
000001b0: 0e28 8f34 8f81 6f35 796f 3eb5 fc77 c033
000001c0: 5888 1635 e921 6eb2 be20 09b5 bdb6 7634
000001d0: 6401 1235 88f0 07b5 54ab 71b5 712f a1b4
000001e0: 9d38 96b4 e605 a0b4 34f8 18b4 375b 1b35
000001f0: 1c66 f834 5379 fb33 c33b f934 0fad 91b4
00000200: 1815 28b2 c49d 9c32 416f 9fae 0175 41b1
00000210: 463e 13b3 5bc0 ceb1 c604 2d32 ba3f 44b2
00000220: 2a82 13b3 8bdd 8333 c828 1bb2 7ff8 4b33
00000230: bf3c f5b2 c057 ef31 ed67 13b3 1d1f 98af
00000240: 9220 cd32 c072 0833 a28e ad31 e21d 1733
00000250: 8260 9932 9bce b6b1 9dff 1a31 f95b 4d33
00000260: 4772 0632 886f a1b2 0720 4032 4d7d f3b1
00000270: 8f6f 0ab3 1dcf 09b2 0e9f 9f32 7043 d331
00000280: 4399 efb1 15b4 8bb3 86b0 65b2 04fc 8e32
00000290: ea34 c1b2 e9c6 fb30 0980 c932 f367 9fb1
000002a0: 9f8e b6b2 8d85 9431 532b 4b33 6d35 25b2
000002b0: 704c 6a33 7866 a5b2 080c dab1 33b6 50b2
000002c0: d2d5 8332 cade b832 6515 98b1 fdab 002f
000002d0: f597 b6b2 6329 ffb0 4914 e0b2 c1e8 c832
000002e0: 4e1b c32f ef27 a7b1 2e50 03b3 fc3d 8031
000002f0: f258 f432 31b2 6032 e00b 00b1 7247 7132
00000300: ca04 5534 9337 5ab3 0a8d 3f34 54a6 0fb4
00000310: 24a2 5c35 73d0 4635 c741 a8b4 17be 3e35
00000320: f6de e435 2188 cdb5 459b e1b3 47a7 a3b5
00000330: 6015 1735 f484 04b5 418d a035 923d feb4
00000340: 8e68 0bb5 d207 dbb4 f117 bf33 fb61 93b4
00000350: 4d9e 32b5 fecc 8833 7f57 6934 0388 a6b5
00000360: f495 a1b4 5aed e634 bb4d d1b4 b9af 7134
00000370: d579 7935 4399 8f33 e859 19b5 55b8 0ab4
00000380: 4237 3ab5 b876 a635 1f7d 0334 dbe2 80b5
00000390: b616 f634 6021 7734 005c 04b5 be54 1cb4
000003a0: 300e 6a32 42d8 d4b2 3f0e 3bb5 8b6c f933
000003b0: e587 15b5 0a1a 7334 5be2 bb34 0a38 4035
000003c0: e0e3 bcb4 05ad 2bb5 c890 0d34 e220 5db4
000003d0: 9c64 2a34 c4f6 62b5 d26b 6534 ffe7 c934
000003e0: 8931 2db5 ef76 52b3 be04 4334 7fdf 06b5
000003f0: 9e23 83b5 0bd9 16b4 3aa2 3bb3 1460 0eb5

bias f4 [64]
4.801405e-09 5.1010194e-12 -1.8883475e-13 1.40580984e-11 2.3981218e-06 2.4032429e-14 9.3226686e-07 -9.261662e-07
1.23717116e-14 1.8730094e-06 2.59403e-06 -1.0823321e-06 5.5345216e-12 -3.6956676e-06 -1.5417444e-15 -6.1857336e-10
1.7030455e-09 -1.5861726e-09 2.2113015e-14 -3.0886552e-15 -6.824907e-19 5.8963145e-15 1.4174956e-09 8.0275835e-11
-5.7748844e-07 4.201379e-06 3.4558195e-06 6.2650644e-13 -8.761517e-10 -2.6010632e-06 -8.9443913e-10 -4.774425e-07
1.1261683e-09 -6.610169e-14 2.4579556e-09 -7.472391e-11 -2.1362371e-08 9.952732e-07 6.3987753e-13 -3.495578e-12
-1.1891403e-18 -6.679686e-09 -6.1631813e-06 -4.4053774e-14 -9.073248e-11 1.272962e-11 -2.5164755e-09 5.4552314e-15
5.3225317e-11 -6.5776207e-10 -9.764769e-10 -2.5906733e-11 4.5884736e-09 -1.5836804e-08 -1.6593948e-08 3.4478873e-08
-4.0988252e-06 -1.0548063e-16 -3.1306913e-10 -4.3805153e-13 -3.417516e-06 -5.7423285e-12 -1.2202332e-08 -1.2072919e-11
00000000: 9bf9 a431 e679 b32c e99b 54aa 0c50 772d
00000010: 6bef 2036 0277 d828 e440 7a35 a89d 78b5
00000020: 73de 5e28 1d64 fb35 1915 2e36 a644 91b5
00000030: 8aba c22c 1603 78b6 5430 dea6 3b08 2ab0
00000040: 9610 ea30 7d00 dab0 242d c728 a28f 5ea7
00000050: 8a6f 49a1 e76f d427 b1d1 c230 4787 b02e
00000060: b404 1bb5 92f9 8c36 87ea 6736 8c58 302b
00000070: b2d5 70b0 ed8d 2eb6 8fdc 75b0 9929 00b5
00000080: 86c7 9a30 08d9 94a9 d0e8 2831 d251 a4ae
00000090: 5a80 b7b2 5495 8535 091c 342b bcfa 75ac
000000a0: 737c afa1 2483 e5b1 53cd ceb6 8b66 46a9
000000b0: d885 c7ae 1df1 5f2d 4eee 2cb1 a18b c427
000000c0: 6116 6a2e e4cd 34b0 ba34 86b0 c7e0 e3ad
000000d0: a4a8 9d31 8009 88b2 7a8a 8eb2 ec15 1433
000000e0: a488 89b6 c638 f3a4 901c acaf e199 f6aa
000000f0: 7a58 65b6 4c0a caac 6ca2 51b2 9863 54ad

weight f4 [64, 64]
0.22354801 -0.00562989 -0.06842711 0.07901293 -0.075002275 -0.043518983 0.19016747 -0.059586063
-0.025397146 0.01144824 0.33970168 -0.048899464 -0.095443375 0.16118295 0.06270691 0.0054255133
0.37542963 0.016588235 0.017893873 -0.04025813 0.23095436 -0.020194344 -0.06377014 0.04233898
-0.010826621 -0.045363367 -0.032516215 -0.020507287 0.046595562 -0.27225435 -0.12194434 0.0718101
-0.0136770215 -0.114201985 0.07161656 0.026933055 0.07626166 -0.108306766 -0.22604014 0.001831645
-0.02160984 -0.0023855725 -0.06907236 0.17614205 0.123929396 0.38311833 0.053804815 0.061832022
0.1121885 0.002464827 -0.097541235 -0.047731224 0.2824219 0.15314558 -0.08413901 -0.015713654
0.04475287 0.05715235 -0.020753967 -0.11953927 -0.25631815 -0.4922778 0.047902357 -0.029400652
-0.034256335 0.030621417 -0.026943695 -0.056976352 -0.13169368 0.008040957 -0.21095529 -0.11541006
0.07453718 -0.016470982 0.10870129 -0.06620505 -0.27452385 0.22726989 -0.07390403 0.022126792
-0.3061281 -0.071931005 -0.036331374 0.053532716 0.19478595 -0.093170896 0.09395988 0.5092238
-0.055186994 0.01033213 -0.053932797 -0.106988594 -0.00636702 -0.05061858 0.027431464 -0.10296994
-0.0071585746 0.039100185 0.079994746 -0.053506147 -0.055004638 -0.07568993 0.21289979 -0.13381165
-0.001981543 -0.093905605 -0.008713841 -0.037138056 0.50441927 0.16900955 0.0075952383 -0.0034892524
-0.050837763 -0.014081802 -0.019357208 0.31486544 -0.0006496542 0.24421553 -0.044410262 -0.02724349
0.014955778 -0.0012668342 0.02134431 -0.07143947 -0.043966454 0.12166487 -0.09807329 0.037932597
-0.08965823 -0.09109676 0.033899676 -0.09051678 -0.025795732 -0.009154989 0.011928242 -0.009265602
0.03384076 0.03612234 0.3329127 -0.06382186 -0.21067983 0.2748702 -0.018335022 0.039405327
0.0714823 -0.037299424 -0.007171006 -0.032614958 -0.21484074 -0.08130298 -0.040744692 -0.30757174
-0.1083897 -0.037331663 0.007205829 -0.14214042 -0.12480402 0.1926856 -0.02655619 -0.03492984
-0.12510061 -0.035012487 -0.08598737 -0.038027894 -0.038464982 -0.1504631 -0.16368243 -0.0798673
0.006017182 -0.027803669 -0.001985426 0.053217575 0.23022316 -0.2227131 -0.015007503 -0.17426395
-0.14025724 -0.08145275 -0.08779737 -0.123945914 -0.28774655 -0.021182299 -0.22124447 -0.1546645
-0.13424693 0.04006415 -0.40634847 0.209949 0.24077412 0.05280223 -0.1227544 -0.073171414
0.023373507 -0.010697913 0.0862777 0.24795242 0.095015235 -0.0387538 0.03363953 0.078858234
0.04156595 0.0276476 0.29513946 0.07194705 -0.31080088 -0.10153661 -0.07437129 -0.031119227
-0.1977498 -0.005493156 0.017409472 0.06426812 -0.45925075 0.058685716 0.23891228 0.15214545
0.044500872 0.019302009 0.03129376 0.057843283 0.0734909 -0.12579332 -0.03384253 -0.0037911485
0.17281467 -0.03955726 0.023911722 0.032440767 0.016962169 -0.0077455333 0.18520734 -0.19812329
0.084767275 0.09217334 0.005467593 -0.122886136 -0.10436432 -0.47212556 -0.14215001 -0.113820404
0.3251522 0.0077546253 0.037151903 -0.057530385 0.3474533 0.28066254 0.07820499 -0.022595039
-0.04694056 -0.0021637918 -0.0029456427 -0.081284516 0.23982073 -0.2704707 -0.011365458 0.01810148
00000000: c5e9 643e f17a b8bb 8323 8cbd 88d1 a13d
00000010: cb9a 99bd f640 32bd 43bb 423e 8410 74bd
00000020: ad0d d0bc 6691 3b3c 61ed ad3e ce4a 48bd
00000030: d177 c3bd 250d 253e 7b6c 803d 81c8 b13b
00000040: 5038 c03e 0de4 873c 2c96 923c b5e5 24bd
00000050: 4d7f 6c3e 9c6e a5bc eb99 82bd a36b 2d3d
00000060: 2462 31bc f0ce 39bd b92f 05bd e6fe a7bc
00000070: fdda 3e3d ec64 8bbe f4bd f9bd 2c11 933d
00000080: 9615 60bc bbe2 e9bd b4ab 923d b6a2 dc3c
00000090: 132f 9c3d f0cf ddbd 1177 67be cf13 f03a
000000a0: 1f07 b1bc 4457 1cbb cf75 8dbd 955e 343e
000000b0: b2ce fd3d 1628 c43e 7062 5c3d 9343 7d3d
000000c0: 16c3 e53d ef88 213b b3c3 c7bd d181 43bd
000000d0: 9a99 903e 32d2 1c3e 1351 acbd ecb9 80bc
000000e0: c94e 373d 9518 6a3d 3904 aabc 01d1 f4bd
000000f0: 223c 83be d60b fcbe 4335 443d a3d9 f0bc
00000100: 5f50 0cbd c4d9 fa3c 06b9 dcbc 0960 69bd
00000110: b5da 06be 38be 033c aa04 58be 1c5c ecbd
00000120: f3a6 983d 27ee 86bc c89e de3d 8396 87bd
00000130: 648e 8cbe 70b9 683e ff5a 97bd 3f43 b53c
00000140: d3bc 9cbe 9050 93bd 35d0 14bd 1f45 5b3d
00000150: f875 473e 62d0 bebd 0a6e c03d 7e5c 023f
00000160: c20b 62bd 1848 293c a3e8 5cbd d61c dbbd
00000170: 6fa2 d0bb 6e55 4fbd f3b7 e03c e7e1 d2bd
00000180: 7a92 eabb 8427 203d 49d4 a33d 4329 5bbd
00000190: 8b4c 61bd 5203 9bbd 6702 5a3e ec05 09be
000001a0: c6dc 01bb 9551 c0bd 80c4 0ebc 131e 18bd
000001b0: 9f21 013f d710 2d3e 7ae1 f83b f1ab 64bb
000001c0: 423b 50bd 5cb7 66bc 0293 9ebc 0b36 a13e
000001d0: 8e4d 2aba a313 7a3e 89e7 35bd bd2d dfbc
000001e0: 1409 753c e70b a6ba 43da ae3c db4e 92bd
000001f0: 2b16 34bd 6e2b f93d a6da c8bd 365f 1b3d
00000200: bc9e b7bd f090 babd 63da 0a3d dd60 b9bd
00000210: 9251 d3bc cffe 15bc ac6e 433c c0ce 17bc
00000220: 9c9c 0a3d 05f5 133d 8973 aa3e 09b5 82bd
00000230: 74bc 57be c9bb 8c3e 5433 96bc 7b67 213d
00000240: 5065 923d 48c7 18bd c2fa eabb 4397 05bd
00000250: 36ff 5bbe 2d82 a6bd e8e3 26bd 0b7a 9dbe
00000260: 6bfb ddbd 16e9 18bd e01e ec3b 428d 11be
00000270: 4099 ffbd 604f 453e 5e8c d9bc 9812 0fbd
00000280: 601a 00be 4169 0fbd 251a b0bd 23c3 1bbd
00000290: 758d 1dbd 0013 1abe 5e9c 27be 7891 a3bd
000002a0: c82b c53b 85c4 e3bc ec1d 02bb acfa 593d
000002b0: 9fbf 6b3e e70e 64be 08e2 75bc 4072 32be
000002c0: 989f 0fbe b3d0 a6bd 1ccf b3bd 5bd7 fdbd
000002d0: 8453 93be 8086 adbc e98d 62be 5f60 1ebe
000002e0: 0778 09be 4e1a 243d e80c d0be dffc 563e
000002f0: 7e8d 763e 2747 583d a966 fbbd e5da 95bd
00000300: cc79 bf3c 4d46 2fbc 5db2 b03d 3de7 7d3e
00000310: 5997 c23d 4ebc 1ebd 9bc9 093d 6d80 a13d
00000320: 0f41 2a3d 387d e23c 851c 973e fa58 933d
00000330: 4b21 9fbe 6df2 cfbd fa4f 98bd c0ed febc
00000340: ec7e 4abe efff b3bb 4f9e 8e3c 019f 833d
00000350: ea22 ebbe 6f60 703d 6ca5 743e 04cc 1b3e
00000360: 8c46 363d 3f1f 9e3c e32d 003d 14ed 6c3d
00000370: 6682 963d f7cf 00be 779e 0abd eb74 78bb
00000380: 54f6 303e cb06 22bd 84e2 c33c 9ce0 043d
00000390: 3ff4 8a3c 3ece fdbb fea6 3d3e d5e0 4abe
000003a0: 779a ad3d 60c5 bc3d 7f29 b33b baab fbbd
000003b0: f6bc d5bd 71ba f1be c68f 11be ac1a e9bd
000003c0: 597a a63e 831a fe3b 982c 183d fba4 6bbd
000003d0: 66e5 b13e 00b3 8f3e f029 a03d 3b19 b9bc
000003e0: bf44 40bd 67ce 0dbb af0b 41bb 7f78 a6bd
000003f0: 9193 753e 237b 8abe 3036 3abc 8e49 943c

bias f4 [64]
0.010637434 0.023403274 0.018720297 0.009504735 0.031226603 0.020231877 -0.3907879 0.017010488
0.47796178 0.0048132725 -0.044446334 0.020848963 0.39445233 -0.33604014 0.022864358 0.023227056
-0.027961498 0.023871176 -0.015032872 0.005259504 -0.1830126 0.008278074 0.03333019 -0.41752666
0.023742026 0.005780298 -0.0038521825 -0.0059063393 0.010637407 0.52780247 0.024288015 -0.011573712
0.017012397 -0.0012582659 0.021817857 0.0061295135 0.018105615 0.003658318 -0.394863 0.013741726
0.005925565 0.0013797431 0.01879161 -0.37666973 -0.0609538 0.3799467 0.014320659 0.016890034
-0.22539534 0.0042098663 -0.0031921696 0.002757904 0.43483812 -0.3697642 0.012752109 0.015018816
0.016013315 0.003667061 0.28078452 -0.3544395 -0.05804389 -0.33985803 0.0058183973 0.009604845
00000000: a248 2e3c 39b8 bf3c 4f5b 993c bfb9 1b3c
00000010: efce ff3c 52bd a53c 5a15 c8be 9459 8b3c
00000020: 68b7 f43e a8b8 9d3b 5c0d 36bd 72cb aa3c
00000030: a8f5 c93e 740d acbe 094e bb3c ab46 be3c
00000040: 830f e5bc 7c8d c33c 6f4c 76bc eb57 ac3b
00000050: a867 3bbe c2a0 073c 3d85 083d 0ec6 d5be
00000060: a37e c23c a768 bd3b e674 7cbb f789 c1bb
00000070: 8548 2e3c 101e 073f a9f7 c63c ab9f 3dbc
00000080: 955d 8b3c 66ec a4ba 5dbb b23c 16da c83b
00000090: 3a52 943c 64c0 6f3b 7c2b cabe fa24 613c
000000a0: 3e2b c23b 7fd8 b43a ddf0 993c dbda c0be
000000b0: b1aa 79bd 6088 c23e 33a1 6a3c f85c 8a3c
000000c0: 09ce 66be ebf2 893b b833 51bb f3bd 343b
000000d0: 1aa3 de3e bc51 bdbe 39ee 503c 7b11 763c
000000e0: 5b2e 833c 1353 703b fdc2 8f3e 1879 b5be
000000f0: 6ebf 6dbd df01 aebe 41a8 be3b a45d 1d3c
